…
handlers': {'console': {'class': 'logging.StreamHandler', 'formatter': 'simple', 'stream': 'ext://sys.stdout'}, 'file': {'class': 'logging.FileHandler', 'formatter': 'simple', 'filename': 'hydra_train.log'}}, 'root': {'level': 'INFO', 'handlers': ['console', 'file']}, 'disable_existing_loggers': False}}
Wav2VecCtc(
  (w2v_encoder): Wav2VecEncoder(
    (w2v_model): Data2VecMultiModel(
      (modality_encoders): ModuleDict(
        (AUDIO): AudioEncoder(
          (local_encoder): ConvFeatureExtractionModel(
            (conv_layers): ModuleList(
              (0): Sequential(
                (0): Conv1d(1, 512, kernel_size=(10,), stride=(5,), bias=False)
                (1): Dropout(p=0.0, inplace=False)
                (2): Sequential(
                  (0): TransposeLast()
                  (1): Fp32LayerNorm((512,), eps=1e-05, elementwise_affine=True)
                  (2): TransposeLast()
                )
                (3): GELU(approximate='none')
              )
              (1-4): 4 x Sequential(
                (0): Conv1d(512, 512, kernel_size=(3,), stride=(2,), bias=False)
                (1): Dropout(p=0.0, inplace=False)
                (2): Sequential(
                  (0): TransposeLast()
                  (1): Fp32LayerNorm((512,), eps=1e-05, elementwise_affine=True)
                  (2): TransposeLast()
                )
                (3): GELU(approximate='none')
              )
              (5-6): 2 x Sequential(
                (0): Conv1d(512, 512, kernel_size=(2,), stride=(2,), bias=False)
                (1): Dropout(p=0.0, inplace=False)
                (2): Sequential(
                  (0): TransposeLast()
                  (1): Fp32LayerNorm((512,), eps=1e-05, elementwise_affine=True)
                  (2): TransposeLast()
                )
                (3): GELU(approximate='none')
              )
            )
          )
          (project_features): Sequential(
            (0): TransposeLast()
            (1): LayerNorm((512,), eps=1e-05, elementwise_affine=True)
            (2): Linear(in_features=512, out_features=768, bias=True)
          )
          (relative_positional_encoder): Sequential(
            (0): TransposeLast()
            (1): Sequential(
              (0): Conv1d(768, 768, kernel_size=(19,), stride=(1,), padding=(9,), groups=16)
              (1): SamePad()
              (2): TransposeLast()
              (3): LayerNorm((768,), eps=1e-05, elementwise_affine=False)
              (4): TransposeLast()
              (5): GELU(approximate='none')
            )
            (2): Sequential(
              (0): Conv1d(768, 768, kernel_size=(19,), stride=(1,), padding=(9,), groups=16)
              (1): SamePad()
              (2): TransposeLast()
              (3): LayerNorm((768,), eps=1e-05, elementwise_affine=False)
              (4): TransposeLast()
              (5): GELU(approximate='none')
            )
            (3): Sequential(
              (0): Conv1d(768, 768, kernel_size=(19,), stride=(1,), padding=(9,), groups=16)
              (1): SamePad()
              (2): TransposeLast()
              (3): LayerNorm((768,), eps=1e-05, elementwise_affine=False)
              (4): TransposeLast()
              (5): GELU(approximate='none')
            )
            (4): Sequential(
              (0): Conv1d(768, 768, kernel_size=(19,), stride=(1,), padding=(9,), groups=16)
              (1): SamePad()
              (2): TransposeLast()
              (3): LayerNorm((768,), eps=1e-05, elementwise_affine=False)
              (4): TransposeLast()
              (5): GELU(approximate='none')
            )
            (5): Sequential(
              (0): Conv1d(768, 768, kernel_size=(19,), stride=(1,), padding=(9,), groups=16)
              (1): SamePad()
              (2): TransposeLast()
              (3): LayerNorm((768,), eps=1e-05, elementwise_affine=False)
              (4): TransposeLast()
              (5): GELU(approximate='none')
            )
            (6): TransposeLast()
          )
          (context_encoder): BlockEncoder(
            (blocks): ModuleList(
              (0-3): 4 x AltBlock(
                (norm1): LayerNorm((768,), eps=1e-05, elementwise_affine=True)
                (attn): AltAttention(
                  (qkv): Linear(in_features=768, out_features=2304, bias=True)
                  (attn_drop): Dropout(p=0.0, inplace=False)
                  (proj): Linear(in_features=768, out_features=768, bias=True)
                  (proj_drop): Dropout(p=0.0, inplace=False)
                )
                (drop_path): Identity()
                (norm2): LayerNorm((768,), eps=1e-05, elementwise_affine=True)
                (mlp): Mlp(
                  (fc1): Linear(in_features=768, out_features=3072, bias=True)
                  (act): GELU(approximate='none')
                  (drop1): Dropout(p=0.1, inplace=False)
                  (norm): Identity()
                  (fc2): Linear(in_features=3072, out_features=768, bias=True)
                  (drop2): Dropout(p=0.1, inplace=False)
                )
                (post_mlp_dropout): Dropout(p=0.0, inplace=False)
              )
            )
            (norm): LayerNorm((768,), eps=1e-05, elementwise_affine=True)
            (dropout): Dropout(p=0.0, inplace=True)
          )
          (decoder): None
        )
      )
      (dropout_input): Dropout(p=0.0, inplace=False)
      (blocks): ModuleList(
        (0-7): 8 x AltBlock(
          (norm1): LayerNorm((768,), eps=1e-05, elementwise_affine=True)
          (attn): AltAttention(
            (qkv): Linear(in_features=768, out_features=2304, bias=True)
            (attn_drop): Dropout(p=0.0, inplace=False)
            (proj): Linear(in_features=768, out_features=768, bias=True)
            (proj_drop): Dropout(p=0.0, inplace=False)
          )
          (drop_path): Identity()
          (norm2): LayerNorm((768,), eps=1e-05, elementwise_affine=True)
          (mlp): Mlp(
            (fc1): Linear(in_features=768, out_features=3072, bias=True)
            (act): GELU(approximate='none')
            (drop1): Dropout(p=0.1, inplace=False)
            (norm): Identity()
            (fc2): Linear(in_features=3072, out_features=768, bias=True)
            (drop2): Dropout(p=0.1, inplace=False)
          )
          (post_mlp_dropout): Dropout(p=0.0, inplace=False)
        )
      )
    )
    (final_dropout): Dropout(p=0.0, inplace=False)
    (proj): Linear(in_features=768, out_features=32, bias=True)
  )
)
task: AudioFinetuningTask
model: Wav2VecCtc
criterion: CtcCriterion
num. shared model params: 93,188,140 (num. trained: 93,188,140)
num. expert model params: 0 (num. trained: 0)
training on 1 devices (GPUs/TPUs)
max tokens per device = 1280000 and max sentences per device = None
begin dry-run validation on "valid" subset
Start iterating over samples
…
