…
', 'mae_init': False, 'bert_init': True, 'seed': 1, 'skip_ema': False, 'cls_loss': 0.0, 'alt_cls_targets': False, 'recon_loss': 0.0, 'recon_dim': 0, 'd2v_loss': 1.0, 'qk_scale': None, 'cosine_attention': False, 'decoder_group': False}
ADD GAUSSIAN NOISE TO TRAINING?:  False
ADD UNIFORM NOISE TO TRAINING?:  True
ADD GAUSSIAN NOISE TO TRAINING?:  False
ADD UNIFORM NOISE TO TRAINING?:  True
Data2VecMultiModel(
  (modality_encoders): ModuleDict(
    (AUDIO): AudioEncoder(
      (local_encoder): ConvFeatureExtractionModel(
        (conv_layers): ModuleList(
          (0): Sequential(
            (0): Conv1d(1, 512, kernel_size=(10,), stride=(5,), bias=False)
            (1): Dropout(p=0.0, inplace=False)
            (2): Sequential(
              (0): TransposeLast()
              (1): Fp32LayerNorm((512,), eps=1e-05, elementwise_affine=True)
              (2): TransposeLast()
            )
            (3): GELU(approximate='none')
          )
          (1-4): 4 x Sequential(
            (0): Conv1d(512, 512, kernel_size=(3,), stride=(2,), bias=False)
            (1): Dropout(p=0.0, inplace=False)
            (2): Sequential(
              (0): TransposeLast()
              (1): Fp32LayerNorm((512,), eps=1e-05, elementwise_affine=True)
              (2): TransposeLast()
            )
            (3): GELU(approximate='none')
          )
          (5-6): 2 x Sequential(
            (0): Conv1d(512, 512, kernel_size=(2,), stride=(2,), bias=False)
            (1): Dropout(p=0.0, inplace=False)
            (2): Sequential(
              (0): TransposeLast()
              (1): Fp32LayerNorm((512,), eps=1e-05, elementwise_affine=True)
              (2): TransposeLast()
            )
            (3): GELU(approximate='none')
          )
        )
      )
      (project_features): Sequential(
        (0): TransposeLast()
        (1): LayerNorm((512,), eps=1e-05, elementwise_affine=True)
        (2): Linear(in_features=512, out_features=768, bias=True)
      )
      (relative_positional_encoder): Sequential(
        (0): TransposeLast()
        (1): Sequential(
          (0): Conv1d(768, 768, kernel_size=(19,), stride=(1,), padding=(9,), groups=16)
          (1): SamePad()
          (2): TransposeLast()
          (3): LayerNorm((768,), eps=1e-05, elementwise_affine=False)
          (4): TransposeLast()
          (5): GELU(approximate='none')
        )
        (2): Sequential(
          (0): Conv1d(768, 768, kernel_size=(19,), stride=(1,), padding=(9,), groups=16)
          (1): SamePad()
          (2): TransposeLast()
          (3): LayerNorm((768,), eps=1e-05, elementwise_affine=False)
          (4): TransposeLast()
          (5): GELU(approximate='none')
        )
        (3): Sequential(
          (0): Conv1d(768, 768, kernel_size=(19,), stride=(1,), padding=(9,), groups=16)
          (1): SamePad()
          (2): TransposeLast()
          (3): LayerNorm((768,), eps=1e-05, elementwise_affine=False)
          (4): TransposeLast()
          (5): GELU(approximate='none')
        )
        (4): Sequential(
          (0): Conv1d(768, 768, kernel_size=(19,), stride=(1,), padding=(9,), groups=16)
          (1): SamePad()
          (2): TransposeLast()
          (3): LayerNorm((768,), eps=1e-05, elementwise_affine=False)
          (4): TransposeLast()
          (5): GELU(approximate='none')
        )
        (5): Sequential(
          (0): Conv1d(768, 768, kernel_size=(19,), stride=(1,), padding=(9,), groups=16)
          (1): SamePad()
          (2): TransposeLast()
          (3): LayerNorm((768,), eps=1e-05, elementwise_affine=False)
          (4): TransposeLast()
          (5): GELU(approximate='none')
        )
        (6): TransposeLast()
      )
      (context_encoder): BlockEncoder(
        (blocks): ModuleList(
          (0-3): 4 x AltBlock(
            (norm1): LayerNorm((768,), eps=1e-05, elementwise_affine=True)
            (attn): AltAttention(
              (qkv): Linear(in_features=768, out_features=2304, bias=True)
              (attn_drop): Dropout(p=0.0, inplace=False)
              (proj): Linear(in_features=768, out_features=768, bias=True)
              (proj_drop): Dropout(p=0.0, inplace=False)
            )
            (drop_path): Identity()
            (norm2): LayerNorm((768,), eps=1e-05, elementwise_affine=True)
            (mlp): Mlp(
              (fc1): Linear(in_features=768, out_features=3072, bias=True)
              (act): GELU(approximate='none')
              (drop1): Dropout(p=0.1, inplace=False)
              (norm): Identity()
              (fc2): Linear(in_features=3072, out_features=768, bias=True)
              (drop2): Dropout(p=0.1, inplace=False)
            )
            (post_mlp_dropout): Dropout(p=0.0, inplace=False)
          )
        )
        (norm): LayerNorm((768,), eps=1e-05, elementwise_affine=True)
        (dropout): Dropout(p=0.0, inplace=True)
      )
      (decoder): None
    )
  )
  (dropout_input): Dropout(p=0.0, inplace=False)
  (blocks): ModuleList(
    (0-7): 8 x AltBlock(
      (norm1): LayerNorm((768,), eps=1e-05, elementwise_affine=True)
      (attn): AltAttention(
        (qkv): Linear(in_features=768, out_features=2304, bias=True)
        (attn_drop): Dropout(p=0.0, inplace=False)
        (proj): Linear(in_features=768, out_features=768, bias=True)
        (proj_drop): Dropout(p=0.0, inplace=False)
      )
      (drop_path): Identity()
      (norm2): LayerNorm((768,), eps=1e-05, elementwise_affine=True)
      (mlp): Mlp(
        (fc1): Linear(in_features=768, out_features=3072, bias=True)
        (act): GELU(approximate='none')
        (drop1): Dropout(p=0.1, inplace=False)
        (norm): Identity()
        (fc2): Linear(in_features=3072, out_features=768, bias=True)
        (drop2): Dropout(p=0.1, inplace=False)
      )
      (post_mlp_dropout): Dropout(p=0.0, inplace=False)
    )
  )
)
load state dict config
None
again load state dict config
None
TASK NAME!!
AudioFinetuningTask
config passed in!
{'_name': None, 'common': {'_name': None, 'no_progress_bar': False, 'log_interval': 50, 'log_format': 'json', 'log_fil
…
ight_decay': 0.0, 'use_old_adam': False, 'fp16_adam_stats': False, 'tpu': False, 'lr': [0.0001]}, 'lr_scheduler': {'_name': 'tri_stage', 'warmup_steps': 0, 'hold_steps': 0, 'decay_steps': 0, 'phase_ratio': [0.1, 0.4, 0.5], 'init_lr_scale': 0.01, 'final_lr_scale': 0.05, 'max_update': 20000.0, 'lr': [0.0001]}, 'scADD GAUSSIAN NOISE TO TRAINING?:  False
ADD UNIFORM NOISE TO TRAINING?:  True
Data2VecMultiModel(
  (modality_encoders): ModuleDict(
    (AUDIO): AudioEncoder(
      (local_encoder): ConvFeatureExtractionModel(
        (conv_layers): ModuleList(
          (0): Sequential(
            (0): Conv1d(1, 512, kernel_size=(10,), stride=(5,), bias=False)
            (1): Dropout(p=0.0, inplace=False)
            (2): Sequential(
              (0): TransposeLast()
              (1): Fp32LayerNorm((512,), eps=1e-05, elementwise_affine=True)
              (2): TransposeLast()
            )
            (3): GELU(approximate='none')
          )
          (1-4): 4 x Sequential(
            (0): Conv1d(512, 512, kernel_size=(3,), stride=(2,), bias=False)
            (1): Dropout(p=0.0, inplace=False)
            (2): Sequential(
              (0): TransposeLast()
              (1): Fp32LayerNorm((512,), eps=1e-05, elementwise_affine=True)
              (2): TransposeLast()
            )
            (3): GELU(approximate='none')
          )
          (5-6): 2 x Sequential(
            (0): Conv1d(512, 512, kernel_size=(2,), stride=(2,), bias=False)
            (1): Dropout(p=0.0, inplace=False)
            (2): Sequential(
              (0): TransposeLast()
              (1): Fp32LayerNorm((512,), eps=1e-05, elementwise_affine=True)
              (2): TransposeLast()
            )
            (3): GELU(approximate='none')
          )
        )
      )
      (project_features): Sequential(
        (0): TransposeLast()
        (1): LayerNorm((512,), eps=1e-05, elementwise_affine=True)
        (2): Linear(in_features=512, out_features=768, bias=True)
      )
      (relative_positional_encoder): Sequential(
        (0): TransposeLast()
        (1): Sequential(
          (0): Conv1d(768, 768, kernel_size=(19,), stride=(1,), padding=(9,), groups=16)
          (1): SamePad()
          (2): TransposeLast()
          (3): LayerNorm((768,), eps=1e-05, elementwise_affine=False)
          (4): TransposeLast()
          (5): GELU(approximate='none')
        )
        (2): Sequential(
          (0): Conv1d(768, 768, kernel_size=(19,), stride=(1,), padding=(9,), groups=16)
          (1): SamePad()
          (2): TransposeLast()
          (3): LayerNorm((768,), eps=1e-05, elementwise_affine=False)
          (4): TransposeLast()
          (5): GELU(approximate='none')
        )
        (3): Sequential(
          (0): Conv1d(768, 768, kernel_size=(19,), stride=(1,), padding=(9,), groups=16)
          (1): SamePad()
          (2): TransposeLast()
          (3): LayerNorm((768,), eps=1e-05, elementwise_affine=False)
          (4): TransposeLast()
          (5): GELU(approximate='none')
        )
        (4): Sequential(
          (0): Conv1d(768, 768, kernel_size=(19,), stride=(1,), padding=(9,), groups=16)
          (1): SamePad()
          (2): TransposeLast()
          (3): LayerNorm((768,), eps=1e-05, elementwise_affine=False)
          (4): TransposeLast()
          (5): GELU(approximate='none')
        )
        (5): Sequential(
          (0): Conv1d(768, 768, kernel_size=(19,), stride=(1,), padding=(9,), groups=16)
          (1): SamePad()
          (2): TransposeLast()
          (3): LayerNorm((768,), eps=1e-05, elementwise_affine=False)
          (4): TransposeLast()
          (5): GELU(approximate='none')
        )
        (6): TransposeLast()
      )
      (context_encoder): BlockEncoder(
        (blocks): ModuleList(
          (0-3): 4 x AltBlock(
            (norm1): LayerNorm((768,), eps=1e-05, elementwise_affine=True)
            (attn): AltAttention(
              (qkv): Linear(in_features=768, out_features=2304, bias=True)
              (attn_drop): Dropout(p=0.0, inplace=False)
              (proj): Linear(in_features=768, out_features=768, bias=True)
              (proj_drop): Dropout(p=0.0, inplace=False)
            )
            (drop_path): Identity()
            (norm2): LayerNorm((768,), eps=1e-05, elementwise_affine=True)
            (mlp): Mlp(
              (fc1): Linear(in_features=768, out_features=3072, bias=True)
              (act): GELU(approximate='none')
              (drop1): Dropout(p=0.1, inplace=False)
              (norm): Identity()
              (fc2): Linear(in_features=3072, out_features=768, bias=True)
              (drop2): Dropout(p=0.1, inplace=False)
            )
            (post_mlp_dropout): Dropout(p=0.0, inplace=False)
          )
        )
        (norm): LayerNorm((768,), eps=1e-05, elementwise_affine=True)
        (dropout): Dropout(p=0.0, inplace=True)
      )
      (decoder): None
    )
  )
  (dropout_input): Dropout(p=0.0, inplace=False)
  (blocks): ModuleList(
    (0-7): 8 x AltBlock(
      (norm1): LayerNorm((768,), eps=1e-05, elementwise_affine=True)
      (attn): AltAttention(
        (qkv): Linear(in_features=768, out_features=2304, bias=True)
        (attn_drop): Dropout(p=0.0, inplace=False)
        (proj): Linear(in_features=768, out_features=768, bias=True)
        (proj_drop): Dropout(p=0.0, inplace=False)
      )
      (drop_path): Identity()
      (norm2): LayerNorm((768,), eps=1e-05, elementwise_affine=True)
      (mlp): Mlp(
        (fc1): Linear(in_features=768, out_features=3072, bias=True)
        (act): GELU(approximate='none')
        (drop1): Dropout(p=0.1, inplace=False)
        (norm): Identity()
        (fc2): Linear(in_features=3072, out_features=768, bias=True)
        (drop2): Dropout(p=0.1, inplace=False)
      )
      (post_mlp_dropout): Dropout(p=0.0, inplace=False)
    )
  )
)
load state dict config
None
again load state dict config
None
[2024-04-23 21:31:16,758][fairseq_cli.train][INFO] - Wav2VecCtc(
  (w2v_encoder): Wav2VecEncoder(
    (w2v_model): Data2VecMultiModel(
      (modality_encoders): ModuleDict(
        (AUDIO): AudioEncoder(
          (local_encoder): ConvFeatureExtractionModel(
            (conv_layers): ModuleList(
              (0): Sequential(
                (0): Conv1d(1, 512, kernel_size=(10,), stride=(5,), bias=False)
                (1): Dropout(p=0.0, inplace=False)
                (2): Sequential(
                  (0): TransposeLast()
                  (1): Fp32LayerNorm((512,), eps=1e-05, elementwise_affine=True)
                  (2): TransposeLast()
                )
                (3): GELU(approximate='none')
              )
              (1-4): 4 x Sequential(
                (0): Conv1d(512, 512, kernel_size=(3,), stride=(2,), bias=False)
                (1): Dropout(p=0.0, inplace=False)
                (2): Sequential(
                  (0): TransposeLast()
                  (1): Fp32LayerNorm((512,), eps=1e-05, elementwise_affine=True)
                  (2): TransposeLast()
                )
                (3): GELU(approximate='none')
              )
              (5-6): 2 x Sequential(
                (0): Conv1d(512, 512, kernel_size=(2,), stride=(2,), bias=False)
                (1): Dropout(p=0.0, inplace=False)
                (2): Sequential(
                  (0): TransposeLast()
                  (1): Fp32LayerNorm((512,), eps=1e-05, elementwise_affine=True)
                  (2): TransposeLast()
                )
                (3): GELU(approximate='none')
              )
            )
          )
          (project_features): Sequential(
            (0): TransposeLast()
            (1): LayerNorm((512,), eps=1e-05, elementwise_affine=True)
            (2): Linear(in_features=512, out_features=768, bias=True)
          )
          (relative_positional_encoder): Sequential(
            (0): TransposeLast()
            (1): Sequential(
              (0): Conv1d(768, 768, kernel_size=(19,), stride=(1,), padding=(9,), groups=16)
              (1): SamePad()
              (2): TransposeLast()
              (3): LayerNorm((768,), eps=1e-05, elementwise_affine=False)
              (4): TransposeLast()
              (5): GELU(approximate='none')
            )
            (2): Sequential(
              (0): Conv1d(768, 768, kernel_size=(19,), stride=(1,), padding=(9,), groups=16)
              (1): SamePad()
              (2): TransposeLast()
              (3): LayerNorm((768,), eps=1e-05, elementwise_affine=False)
              (4): TransposeLast()
              (5): GELU(approximate='none')
            )
            (3): Sequential(
              (0): Conv1d(768, 768, kernel_size=(19,), stride=(1,), padding=(9,), groups=16)
              (1): SamePad()
              (2): TransposeLast()
              (3): LayerNorm((768,), eps=1e-05, elementwise_affine=False)
              (4): TransposeLast()
              (5): GELU(approximate='none')
            )
            (4): Sequential(
              (0): Conv1d(768, 768, kernel_size=(19,), stride=(1,), padding=(9,), groups=16)
              (1): SamePad()
              (2): TransposeLast()
              (3): LayerNorm((768,), eps=1e-05, elementwise_affine=False)
              (4): TransposeLast()
              (5): GELU(approximate='none')
            )
            (5): Sequential(
              (0): Conv1d(768, 768, kernel_size=(19,), stride=(1,), padding=(9,), groups=16)
              (1): SamePad()
              (2): TransposeLast()
              (3): LayerNorm((768,), eps=1e-05, elementwise_affine=False)
              (4): TransposeLast()
              (5): GELU(approximate='none')
            )
            (6): TransposeLast()
          )
          (context_encoder): BlockEncoder(
            (blocks): ModuleList(
              (0-3): 4 x AltBlock(
                (norm1): LayerNorm((768,), eps=1e-05, elementwise_affine=True)
                (attn): AltAttention(
                  (qkv): Linear(in_features=768, out_features=2304, bias=True)
                  (attn_drop): Dropout(p=0.0, inplace=False)
                  (proj): Linear(in_features=768, out_features=768, bias=True)
                  (proj_drop): Dropout(p=0.0, inplace=False)
                )
                (drop_path): Identity()
                (norm2): LayerNorm((768,), eps=1e-05, elementwise_affine=True)
                (mlp): Mlp(
                  (fc1): Linear(in_features=768, out_features=3072, bias=True)
                  (act): GELU(approximate='none')
                  (drop1): Dropout(p=0.1, inplace=False)
                  (norm): Identity()
                  (fc2): Linear(in_features=3072, out_features=768, bias=True)
                  (drop2): Dropout(p=0.1, inplace=False)
                )
                (post_mlp_dropout): Dropout(p=0.0, inplace=False)
              )
            )
            (norm): LayerNorm((768,), eps=1e-05, elementwise_affine=True)
            (dropout): Dropout(p=0.0, inplace=True)
          )
          (decoder): None
        )
      )
      (dropout_input): Dropout(p=0.0, inplace=False)
      (blocks): ModuleList(
        (0-7): 8 x AltBlock(
          (norm1): LayerNorm((768,), eps=1e-05, elementwise_affine=True)
          (attn): AltAttention(
            (qkv): Linear(in_features=768, out_features=2304, bias=True)
            (attn_drop): Dropout(p=0.0, inplace=False)
            (proj): Linear(in_features=768, out_features=768, bias=True)
            (proj_drop): Dropout(p=0.0, inplace=False)
          )
          (drop_path): Identity()
          (norm2): LayerNorm((768,), eps=1e-05, elementwise_affine=True)
          (mlp): Mlp(
            (fc1): Linear(in_features=768, out_features=3072, bias=True)
            (act): GELU(approximate='none')
            (drop1): Dropout(p=0.1, inplace=False)
            (norm): Identity()
            (fc2): Linear(in_features=3072, out_features=768, bias=True)
            (drop2): Dropout(p=0.1, inplace=False)
          )
          (post_mlp_dropout): Dropout(p=0.0, inplace=False)
        )
      )
    )
    (final_dropout): Dropout(p=0.0, inplace=False)
    (proj): Linear(in_features=768, out_features=32, bias=True)
  )
)
[2024-04-23 21:31:16,862][fairseq_cli.train][INFO] - task: AudioFinetuningTask
[2024-04-23 21:31:16,862][fairseq_cli.train][INFO] - model: Wav2VecCtc
[2024-04-23 21:31:16,862][fairseq_cli.train][INFO] - criterion: CtcCriterion
[2024-04-23 21:31:16,865][fairseq_cli.train][INFO] - num. shared model params: 93,188,140 (num. trained: 93,188,140)
[2024-04-23 21:31:16,867][fairseq_cli.train][INFO] - num. expert model params: 0 (num. trained: 0)
…
