…
Handler', 'formatter': 'simple', 'stream': 'ext://sys.stdout'}, 'file': {'class': 'logging.FileHandler', 'formatter': 'simple', 'filename': 'hydra_train.log'}}, 'root': {'level': 'INFO', 'handlers': ['console', 'file']}, 'disable_existing_loggers': False}}
[2024-03-26 16:29:37,775][data2vec.models.data2vec2][INFO] - making target model
[2024-03-26 16:29:39,715][fairseq_cli.train][INFO] - Data2VecMultiModel(
  (modality_encoders): ModuleDict(
    (AUDIO): AudioEncoder(
      (local_encoder): ConvFeatureExtractionModel(
        (conv_layers): ModuleList(
          (0): Sequential(
            (0): Conv1d(1, 512, kernel_size=(10,), stride=(5,), bias=False)
            (1): Dropout(p=0.0, inplace=False)
            (2): Sequential(
              (0): TransposeLast()
              (1): Fp32LayerNorm((512,), eps=1e-05, elementwise_affine=True)
              (2): TransposeLast()
            )
            (3): GELU(approximate='none')
          )
          (1-4): 4 x Sequential(
            (0): Conv1d(512, 512, kernel_size=(3,), stride=(2,), bias=False)
            (1): Dropout(p=0.0, inplace=False)
            (2): Sequential(
              (0): TransposeLast()
              (1): Fp32LayerNorm((512,), eps=1e-05, elementwise_affine=True)
              (2): TransposeLast()
            )
            (3): GELU(approximate='none')
          )
          (5-6): 2 x Sequential(
            (0): Conv1d(512, 512, kernel_size=(2,), stride=(2,), bias=False)
            (1): Dropout(p=0.0, inplace=False)
            (2): Sequential(
              (0): TransposeLast()
              (1): Fp32LayerNorm((512,), eps=1e-05, elementwise_affine=True)
              (2): TransposeLast()
            )
            (3): GELU(approximate='none')
          )
        )
      )
      (project_features): Sequential(
        (0): TransposeLast()
        (1): LayerNorm((512,), eps=1e-05, elementwise_affine=True)
        (2): Linear(in_features=512, out_features=768, bias=True)
      )
      (relative_positional_encoder): Sequential(
        (0): TransposeLast()
        (1): Sequential(
          (0): Conv1d(768, 768, kernel_size=(19,), stride=(1,), padding=(9,), groups=16)
          (1): SamePad()
          (2): TransposeLast()
          (3): LayerNorm((768,), eps=1e-05, elementwise_affine=False)
          (4): TransposeLast()
          (5): GELU(approximate='none')
        )
        (2): Sequential(
          (0): Conv1d(768, 768, kernel_size=(19,), stride=(1,), padding=(9,), groups=16)
          (1): SamePad()
          (2): TransposeLast()
          (3): LayerNorm((768,), eps=1e-05, elementwise_affine=False)
          (4): TransposeLast()
          (5): GELU(approximate='none')
        )
        (3): Sequential(
          (0): Conv1d(768, 768, kernel_size=(19,), stride=(1,), padding=(9,), groups=16)
          (1): SamePad()
          (2): TransposeLast()
          (3): LayerNorm((768,), eps=1e-05, elementwise_affine=False)
          (4): TransposeLast()
          (5): GELU(approximate='none')
        )
        (4): Sequential(
          (0): Conv1d(768, 768, kernel_size=(19,), stride=(1,), padding=(9,), groups=16)
          (1): SamePad()
          (2): TransposeLast()
          (3): LayerNorm((768,), eps=1e-05, elementwise_affine=False)
          (4): TransposeLast()
          (5): GELU(approximate='none')
        )
        (5): Sequential(
          (0): Conv1d(768, 768, kernel_size=(19,), stride=(1,), padding=(9,), groups=16)
          (1): SamePad()
          (2): TransposeLast()
          (3): LayerNorm((768,), eps=1e-05, elementwise_affine=False)
          (4): TransposeLast()
          (5): GELU(approximate='none')
        )
        (6): TransposeLast()
      )
      (context_encoder): BlockEncoder(
        (blocks): ModuleList()
        (norm): LayerNorm((768,), eps=1e-05, elementwise_affine=True)
        (dropout): Dropout(p=0.1, inplace=True)
      )
      (decoder): Decoder1d(
        (blocks): Sequential(
          (0): Sequential(
            (0): Conv1d(768, 384, kernel_size=(7,), stride=(1,), padding=(3,), groups=16)
            (1): SamePad()
            (2): TransposeLast()
            (3): LayerNorm((384,), eps=1e-05, elementwise_affine=False)
            (4): TransposeLast()
            (5): GELU(approximate='none')
          )
          (1): Sequential(
            (0): Conv1d(384, 384, kernel_size=(7,), stride=(1,), padding=(3,), groups=16)
            (1): SamePad()
            (2): TransposeLast()
            (3): LayerNorm((384,), eps=1e-05, elementwise_affine=False)
            (4): TransposeLast()
            (5): GELU(approximate='none')
          )
          (2): Sequential(
            (0): Conv1d(384, 384, kernel_size=(7,), stride=(1,), padding=(3,), groups=16)
            (1): SamePad()
            (2): TransposeLast()
            (3): LayerNorm((384,), eps=1e-05, elementwise_affine=False)
            (4): TransposeLast()
            (5): GELU(approximate='none')
          )
          (3): Sequential(
            (0): Conv1d(384, 384, kernel_size=(7,), stride=(1,), padding=(3,), groups=16)
            (1): SamePad()
            (2): TransposeLast()
            (3): LayerNorm((384,), eps=1e-05, elementwise_affine=False)
            (4): TransposeLast()
            (5): GELU(approximate='none')
          )
        )
        (proj): Linear(in_features=384, out_features=768, bias=True)
      )
    )
  )
  (dropout_input): Dropout(p=0.0, inplace=False)
  (blocks): ModuleList(
    (0-11): 12 x AltBlock(
      (norm1): LayerNorm((768,), eps=1e-05, elementwise_affine=True)
      (attn): AltAttention(
        (qkv): Linear(in_features=768, out_features=2304, bias=True)
        (attn_drop): Dropout(p=0.1, inplace=False)
        (proj): Linear(in_features=768, out_features=768, bias=True)
        (proj_drop): Dropout(p=0.1, inplace=False)
      )
      (drop_path): Identity()
      (norm2): LayerNorm((768,), eps=1e-05, elementwise_affine=True)
      (mlp): Mlp(
        (fc1): Linear(in_features=768, out_features=3072, bias=True)
        (act): GELU(approximate='none')
        (drop1): Dropout(p=0.0, inplace=False)
        (norm): Identity()
        (fc2): Linear(in_features=3072, out_features=768, bias=True)
        (drop2): Dropout(p=0.0, inplace=False)
      )
      (post_mlp_dropout): Dropout(p=0.1, inplace=False)
    )
  )
)
[2024-03-26 16:29:39,719][fairseq_cli.train][INFO] - task: AudioPretrainingTask
[2024-03-26 16:29:39,720][fairseq_cli.train][INFO] - model: Data2VecMultiModel
[2024-03-26 16:29:39,720][fairseq_cli.train][INFO] - criterion: ModelCriterion
…
